Client/Gestures_classifier.tflite (tflite, 6476 bytes, 6 tensors)

sequential/dense/BiasAdd/ReadVariableOp f4 [24]
-0.03261523 -0.022459768 0.067177325 -0.014849923 -0.019015051 -0.011466878 0.071035475 -0.041578878
-0.021790404 -0.02237944 -0.18056881 0.0043594227 -0.055391338 -0.008347786 0.014858469 0.031316202
-0.009529755 0.04840408 -0.039250605 -0.003505003 0.036125287 -0.020433385 -0.048949342 -0.022996794
00000000: 8c97 05bd 8cfd b7bc 4494 893d 174d 73bc
00000010: 74c5 9bbc 92df 3bbc 0c7b 913d 9d4e 2abd
00000020: ca81 b2bc 1655 b7bc 08e7 38be 7dd9 8e3b
00000030: 07e2 62bd 27c5 08bc f070 733c 6b45 003d
00000040: b122 1cbc 5b43 463d 3ec5 20bd 31b4 65bb
00000050: 1cf8 133d ea63 a7bc 1b7f 48bd c663 bcbc

sequential/dense_2/BiasAdd/ReadVariableOp f4 [5]
0.6080191 0.32350424 -0.27720365 -0.71476835 0.027530316
00000000: 24a7 1b3f 59a2 a53e a3ed 8dbe 0ffb 36bf
00000010: 4287 e13c

sequential/dense_1/BiasAdd/ReadVariableOp f4 [10]
0.6177598 -0.64376456 -0.050583914 0.7905406 0.5542377 -0.024263749 0.03785439 0.79582834
0.22792588 0.98646975
00000000: 8225 1e3f c1cd 24bf 1431 4fbd de60 4a3f
00000010: 86e2 0d3f c5c4 c6bc 340d 1b3d 68bb 4b3f
00000020: 6765 693e 4889 7c3f

sequential/dense/MatMul f4 [24, 32]
-0.15758108 0.01991883 0.914845 -0.36914143 0.20923586 -0.17883122 0.28737426 -0.1574869
0.19950458 -0.26275653 0.67280394 -0.011712382 0.80377436 -0.26736742 0.6142445 -0.3401986
0.30906373 -0.07543922 0.66067535 -0.015521839 0.98703194 -0.16491707 0.9527948 0.08065414
0.6791826 -0.071725026 1.2560645 -0.16191904 1.080512 0.020868715 1.4934814 0.06838347
-0.10979794 -0.126591 0.011023028 -0.059386864 0.053253092 -0.06838464 0.45728976 -0.351396
0.4670414 0.20286979 0.4420417 -0.14115877 0.42550534 0.023814116 0.59160614 -0.044129632
0.8684128 -0.037728447 1.1653582 -0.057228748 0.7705938 -0.15137649 0.95673066 -0.11637462
1.1428423 -0.3737414 1.308498 -0.29763973 1.5950748 -0.17899323 1.7354249 -0.2568912
-0.067558676 0.05673021 0.08009411 0.64205647 -0.53063226 1.1067432 -0.3815643 0.8063982
-0.3287034 0.75111496 0.11683733 -0.11396856 -0.3043439 0.041240536 -0.21652524 -0.12251412
0.07302641 0.2892118 0.28000745 0.33864138 0.22563812 0.3427628 0.7171598 0.56454676
0.9632238 0.4633119 0.7390513 0.26732624 0.9304488 0.45396507 0.9169074 0.6187771
0.25440514 0.26960778 -0.25749552 -0.65240914 -0.15454057 -0.5477161 -0.2768581 -0.5532591
-0.21728806 -0.49042022 -0.5166293 -0.784689 -0.11203632 -0.7233671 -0.47760862 -0.52118087
-0.4541565 -0.3184645 -0.442735 -0.62961733 -0.5337048 -0.6241201 -0.71093 -0.7909491
-0.59712553 -0.8822224 -1.0510391 -1.2006861 -1.2602686 -0.97566885 -1.4204954 -0.91467243
0.23242968 0.05365804 -0.43342888 0.30857334 -0.4565176 0.15046887 -0.5653845 -0.24736167
-0.6917736 -0.59311503 -0.15690906 -0.08638355 -0.014296715 -0.55012006 0.07124249 -0.25627223
-0.1690441 0.109398276 -0.095474035 -0.11602763 0.124855824 0.5981812 0.27073693 0.512075
0.15890138 0.9941012 0.39858997 1.1174315 0.22996834 1.2599323 0.5073124 0.97843105
-0.13388976 0.039004803 -0.10780654 -0.32452133 0.20842126 -0.3640158 0.6630858 -0.2391183
0.60441715 -0.058021434 -0.18871854 -0.39065212 -0.109901465 -0.5574131 0.08883135 -0.18596101
0.039156456 -0.76763976 -0.14308487 -0.64600915 -0.51853305 -0.5802544 -0.31059223 -0.9279888
-0.4437737 -0.41401875 -0.6735059 -0.95570666 -0.6514264 -0.9774332 -0.7903906 -1.07304
-0.29710922 0.14594182 -0.16470087 0.6555927 -0.13097312 0.5444623 -0.2667687 0.37966618
0.17859466 0.5935966 0.23898089 -0.19096477 -0.07772317 0.1224567 0.07836272 -0.13597474
0.19395466 -0.19519861 0.37115058 -0.009208423 0.34236178 0.2728658 0.88062316 0.18224216
0.84914756 0.280328 1.0037491 0.53735816 0.91128534 0.3907917 1.2425992 0.71921086
-0.24086246 -0.09091379 0.8056351 0.07927908 0.75818855 -0.42436823 0.82606083 -0.34091353
0.34839407 -0.47948676 0.95222974 -0.06293406 0.6808417 -0.2842792 0.91257405 -0.12029138
0.33603388 -0.006269734 0.5949973 -0.259176 1.0656956 -0.06176298 1.1807075 -0.06373417
0.91017723 -0.09311076 1.3597391 -0.05847929 1.463961 0.04580611 1.6213764 0.07006864
00000000: ef5c 21be d02c a33c 4833 6a3f 1b00 bdbe
00000010: ed41 563e 881f 37be b822 933e 3f44 21be
00000020: ee4a 4c3e 0688 86be e13c 2c3f 4ae5 3fbc
00000030: 28c4 4d3f 62e4 88be 213f 1d3f 832e aebe
00000040: 9a3d 9e3e e17f 9abd 0522 293f 504f 7ebc
00000050: 20ae 7c3f 05e0 28be 5cea 733f ff2d a53d
00000060: e9de 2d3f 92e4 92bd b9c6 a03f 1bce 25be
00000070: 384e 8a3f def4 aa3c 662a bf3f a20c 8c3d
00000080: bedd e0bd 12a1 01be ee99 343c a43f 73bd
00000090: ea1f 5a3d 3f0d 8cbd e221 ea3e 2dea b3be
000000a0: 0d20 ef3e 19bd 4f3e 4a53 e23e ed8b 10be
000000b0: d6db d93e d215 c33c 8073 173f 46c1 34bd
000000c0: 4d50 5e3f 2589 1abd 752a 953f b168 6abd
000000d0: a345 453f 7002 1bbe 4dec 743f d155 eebd
000000e0: a848 923f 085b bfbe dd7c a73f 3c64 98be
000000f0: 692b cc3f 004a 37be 6722 de3f 3e87 83be
00000100: 345c 8abd f05d 683d 6108 a43d d05d 243f
00000110: 84d7 07bf c3a9 8d3f 655c c3be 1d70 4e3f
00000120: d04b a8be 1249 403f 6948 ef3d 5968 e9bd
00000130: f7d2 9bbe d6eb 283d cbb8 5dbe afe8 fabd
00000140: df8e 953d 9213 943e 235d 8f3e 6762 ad3e
00000150: ae0d 673e 9b7e af3e c997 373f 2386 103f
00000160: d695 763f 3837 ed3e 7732 3d3f fcde 883e
00000170: e431 6e3f 1c6e e83e 72ba 6a3f 2d68 1e3f
00000180: 6441 823e 080a 8a3e 74d6 83be 4904 27bf
00000190: e23f 1ebe 1f37 0cbf 58c0 8dbe 63a2 0dbf
000001a0: c380 5ebe 5c18 fbbe d141 04bf 61e1 48bf
000001b0: 4c73 e5bd 962e 39bf 1e89 f4be 1c6c 05bf
000001c0: 3387 e8be c70d a3be 29ae e2be 9a2e 21bf
000001d0: e1a0 08bf 56c6 1fbf 82ff 35bf a47b 4abf
000001e0: 38dd 18bf 54d9 61bf 7388 86bf 15b0 99bf
000001f0: 7b50 a1bf 6fc5 79bf cbd2 b5bf f927 6abf
00000200: 0c02 6e3e 88c8 5b3d 64ea ddbe 53fd 9d3e
00000210: adbc e9be 8314 1a3e 0abd 10bf 614c 7dbe
00000220: 1318 31bf 63d6 17bf c5ac 20be dce9 b0bd
00000230: c53c 6abc abd4 0cbf 95e7 913d 1d36 83be
00000240: e619 2dbe 340c e03d e487 c3bd e59f edbd
00000250: 69b4 ff3d 6722 193f 089e 8a3e 5917 033f
00000260: 0bb7 223e 6b7d 7e3f fc13 cc3e ff07 8f3f
00000270: d27c 6b3e 7645 a13f 3adf 013f 757a 7a3f
00000280: 661a 09be 80c3 1f3d adc9 dcbd a927 a6be
00000290: 626c 553e 4760 babe febf 293f 6ddb 74be
000002a0: 15bb 1a3f e2a7 6dbd 6f3f 41be 8e03 c8be
000002b0: 0514 e1bd a0b2 0ebf 36ed b53d 906c 3ebe
000002c0: 8562 203d 0a84 44bf d784 12be db60 25bf
000002d0: 95be 04bf 8d8b 14bf f205 9fbe ad90 6dbf
000002e0: 4e36 e3be 44fa d3be e26a 2cbf 31a9 74bf
000002f0: e1c3 26bf 1039 7abf 0a57 4abf 6059 89bf
00000300: b31e 98be c671 153e 58a7 28be ecd4 273f
00000310: d11d 06be e261 0b3f e895 88be 9b63 c23e
00000320: 85e1 363e f2f5 173f 68b7 743e 458c 43be
00000330: 532d 9fbd 94ca fa3d a27c a03d f63c 0bbe
00000340: 0d9c 463e 25e2 47be 7307 be3e edde 16bc
00000350: 0b4a af3e 11b5 8b3e 8570 613f b09d 3a3e
00000360: bc61 593f 2787 8f3e da7a 803f 4e90 093f
00000370: ff49 693f da15 c83e 7e0d 9f3f 341e 383f
00000380: a6a4 76be 0231 babd 1a3e 4e3f 125d a23d
00000390: a518 423f cb46 d9be b978 533f 388c aebe
000003a0: b560 b23e 4a7f f5be 54c5 733f 93e3 80bd
000003b0: a44b 2e3f 0b8d 91be 749e 693f 545b f6bd
000003c0: a20c ac3e 5772 cdbb be51 183f b7b2 84be
000003d0: b768 883f 2efb 7cbd 6c21 973f 0f87 82bd
000003e0: 6001 693f dbb0 bebd ee0b ae3f fb87 6fbd
000003f0: 1363 bb3f 309f 3b3d 4389 cf3f 2680 8f3d

sequential/dense_1/MatMul f4 [10, 24]
-0.58562934 -0.44211867 0.80684566 0.013750237 0.65378934 -0.89166415 0.3286734 -0.56171685
-0.84900135 0.76305103 -0.34705353 -0.14832938 0.3819856 -0.2051972 -0.76974577 -0.06966497
0.05083737 0.68645036 0.6528164 -0.17173184 0.020289375 -0.7121326 0.5490463 0.6892043
-0.41359663 0.24179961 0.3466557 0.4419143 0.3073985 0.7056194 -0.25261292 -0.40967065
0.46698266 0.36185306 1.2524142 -0.15404297 -0.5434251 0.5544042 0.7070356 0.38704205
0.14448953 -0.23617168 -0.4833363 0.64086705 0.41807616 0.4108996 -0.48303714 0.1378002
1.2556083 1.077161 0.6916041 -1.2598894 0.7152445 -0.77319527 0.32427093 1.0512304
0.5387541 1.1393988 -0.0017939977 0.75608236 0.2792762 0.9877408 -0.8557583 1.0014721
0.2996985 0.6531758 -0.033153202 0.82438827 -0.5991126 -0.76964086 0.14470203 1.1699746
0.0316502 0.29468888 0.44227934 0.25117427 -0.2904368 0.1388944 0.50856626 -0.047397442
-2.3241615 -0.8456403 -0.2890262 0.39174035 -1.6534144 -1.9288882 -0.15983637 0.7161188
-1.0041825 0.3068853 -1.5058384 0.65733707 0.10936711 -0.50903636 -1.5498475 -0.27124703
-1.4664345 -0.5472808 0.33735442 -0.3524875 -2.0181022 0.11616514 0.012294774 -1.2901638
-0.3614698 -0.95242614 0.624014 -0.2706139 -1.2766036 -1.4294665 0.4429071 -0.25933337
-0.49480173 0.3292237 -1.1765767 -0.89916265 0.5576745 0.21345337 -0.7221199 -1.6769041
0.72361505 0.28531173 0.13823041 -1.1912237 0.99770534 -0.8329262 0.6597389 0.6177089
-0.2645538 0.47547978 0.26723066 0.20755014 0.43778044 0.3987228 -1.4924772 0.07166382
-0.58350116 0.5924943 0.56889296 0.0587199 -1.3455391 -0.51827675 0.6283906 0.680914
-0.51746 -0.55723166 0.19936852 0.7486328 0.85467714 1.2830861 0.039472703 -0.5014927
0.9690715 1.0430416 0.17672515 -0.44838315 0.96708417 1.2906862 0.6496457 -0.55982834
0.06765607 -0.2917618 0.5914547 0.224725 0.36678776 0.8222858 0.9048099 0.9422385
1.3493797 0.6534122 -0.033217724 0.42264673 -0.7047747 0.3237215 -0.084789835 1.2311052
-0.16903697 -0.8441641 -1.1780149 0.60315543 0.10149604 -0.7745041 0.11802531 0.47457698
0.5528221 0.008409781 0.0011113925 0.048349045 0.16614445 0.17459714 0.4050919 -0.43634292
-0.0067441864 -0.42770165 -1.3023411 1.2417123 0.35603708 1.3523799 -1.5400105 0.122973874
0.96186316 0.24856193 0.37978432 -1.0338733 0.3658 1.074974 1.1418588 -0.80901957
1.2989563 -1.314756 0.7499641 0.7986049 1.2050903 1.5237224 0.6354155 -0.073481224
-1.4001662 -1.0056967 -0.57707006 -0.111914195 -0.7758991 0.12091338 -0.42685422 -1.1874149
0.0022703346 -0.2122434 -1.3741767 -0.7214348 -0.023003848 -0.16600731 0.29457274 -0.9662022
-0.34009463 -0.39678454 0.40470776 -0.74592406 0.21710172 -0.10879016 -0.039865404 -1.223036
00000000: ceeb 15bf 615d e2be 708d 4e3f ad48 613c
00000010: bd5e 273f 1a44 64bf e147 a83e adcc 0fbf
00000020: 2758 59bf 5057 433f 00b1 b1be a8e3 17be
00000030: 9e93 c33e 371f 52be 0f0e 45bf 82ac 8ebd
00000040: d93a 503d 36bb 2f3f fa1e 273f 79da 2fbe
00000050: e735 a63c 524e 36bf 4c8e 0c3f b16f 303f
00000060: f0c2 d3be 519a 773e db7c b13e 9742 e23e
00000070: 5663 9d3e 79a3 343f 7b56 81be 5ac0 d1be
00000080: 5a18 ef3e ce44 b93e 1c4f a03f 71bd 1dbe
00000090: e81d 0bbf 6fed 0d3f 4900 353f 602a c63e
000000a0: 10f5 133e fdd6 71be db77 f7be dd0f 243f
000000b0: 140e d63e 6f61 d23e a550 f7be 7f1b 0d3e
000000c0: c6b7 a03f 69e0 893f f70c 313f 0e44 a1bf
000000d0: 431a 373f 20f0 45bf d706 a63e b88e 863f
000000e0: caeb 093f d2d7 913f 9324 ebba 9d8e 413f
000000f0: 4afd 8e3e 95dc 7c3f fa12 5bbf 3d30 803f
00000100: 1572 993e 8736 273f a7cb 07bd 1c0b 533f
00000110: 715f 19bf 2f07 45bf c52c 143e bac1 953f
00000120: a4a3 013d 76e1 963e 7072 e23e ea99 803e
00000130: 22b4 94be 553a 0e3e 6631 023f d223 42bd
00000140: 10bf 14c0 e27b 58bf 3efb 93be 3192 c83e
00000150: 15a3 d3bf cfe5 f6bf 25ac 23be 9053 373f
00000160: 0d89 80bf 1220 9d3e 50bf c0bf 3e47 283f
00000170: ddfb df3d 3550 02bf 6761 c6bf e4e0 8abe
00000180: 20b4 bbbf 981a 0cbf b8b9 ac3e 3e79 b4be
00000190: 9628 01c0 fde7 ed3d 0570 493c 1624 a5bf
000001a0: 9212 b9be 33d2 73bf 62bf 1f3f e88d 8abe
000001b0: bf67 a3bf c2f8 b6bf b8c4 e23e 58c7 84be
000001c0: a756 fdbe 0290 a83e 119a 96bf 862f 66bf
000001d0: c2c3 0e3f 8593 5a3e dadc 38bf cba4 d6bf
000001e0: d63e 393f 6114 923e 468c 0d3e 057a 98bf
000001f0: 9e69 7f3f a73a 55bf a6e4 283f 2c22 1e3f
00000200: 9873 87be 1672 f33e 75d2 883e 0688 543e
00000210: c224 e03e 6525 cc3e 7e09 bfbf 7bc4 923d
00000220: 5560 15bf b5ad 173f f8a2 113f 4784 703d
00000230: a03a acbf c9ad 04bf 35de 203f 6150 2e3f
00000240: 4278 04bf bca6 0ebf 4327 4c3e 66a6 3f3f
00000250: 1fcc 5a3f 2a3c a43f 21ae 213d d361 00bf
00000260: 1215 783f 6382 853f 70f7 343e 7a92 e5be
00000270: d492 773f 3535 a53f 2e4f 263f e950 0fbf
00000280: 448f 8a3d cd61 95be 9369 173f 4f1e 663e
00000290: 9bcb bb3e 5281 523f 9fa1 673f 8b36 713f
000002a0: 79b8 ac3f 0646 273f 4f0f 08bd 2765 d83e
000002b0: 1d6c 34bf d3be a53e 4ba6 adbd db94 9d3f
000002c0: 0718 2dbe 231b 58bf 31c9 96bf 6568 1a3f
000002d0: 28dd cf3d e745 46bf 41b7 f13d c1fb f23e
000002e0: c085 0d3f 2ec9 093c 25ac 913a a609 463d
000002f0: c521 2a3e 98c9 323e 3568 cf3e 5768 dfbe
00000300: 56fe dcbb b6fb dabe 1db3 a6bf 6ef0 9e3f
00000310: 7e4a b63e c91a ad3f 101f c5bf bad9 fb3d
00000320: aa3c 763f 0587 7e3e 1773 c23e f655 84bf
00000330: 234a bb3e bf98 893f 6e28 923f e81b 4fbf
00000340: 3344 a63f ed49 a8bf a6fd 3f3f 5f71 4c3f
00000350: 6640 9a3f 5609 c33f 97aa 223f 537d 96bd
00000360: a538 b3bf abba 80bf ddba 13bf 4533 e5bd
00000370: 53a1 46bf 6fa1 f73d a38c dabe 36fd 97bf
00000380: e5c9 143b 5556 59be 06e5 afbf f3af 38bf
00000390: 9172 bcbc d2fd 29be 3dd2 963e 0759 77bf
000003a0: e220 aebe 5827 cbbe db35 cf3e e1f4 3ebf
000003b0: ea4f 5e3e 60cd debd e849 23bd 728c 9cbf

sequential/dense_2/MatMul f4 [5, 10]
-0.43932664 -0.58295894 -2.264224 1.2755259 1.2863674 -2.0199275 -2.4041307 0.29310235
-2.7687442 1.2311448 -1.6957703 -1.5631622 0.49247804 -1.1144446 -0.76183057 -0.17009968
0.7416709 0.71557117 0.88679934 0.9995976 0.39536482 -0.3895369 1.0428137 0.30572498
-1.7533511 0.40421882 -0.36766133 0.32847837 0.5640177 -1.602858 -0.17823507 1.7323031
0.5076109 0.13927512 0.31363177 0.19489697 0.6385397 -1.1216143 0.91005033 -1.1573664
1.260566 0.0264277 0.27825177 -1.3968505 0.31567106 0.9435847 1.0080146 -1.2882777
-1.41978 0.4054378
00000000: 6cef e0be cc3c 15bf 0ce9 10c0 6f44 a33f
00000010: b0a7 a43f 7e46 01c0 47dd 19c0 8311 963e
00000020: 1b33 31c0 2796 9d3f 000f d9bf b315 c8bf
00000030: 1526 fc3e 1fa6 8ebf 5407 43bf 9c2e 2ebe
00000040: 25de 3d3f ac2f 373f 4805 633f a1e5 7f3f
00000050: 426d ca3e 6171 c7be eb7a 853f fc87 9c3e
00000060: cf6d e0bf c5f5 ce3e 1b3e bcbe 512e a83e
00000070: 7763 103f 732a cdbf 4183 36be 1cbc dd3f
00000080: caf2 013f 239e 0e3e 5894 a03e 1293 473e
00000090: 5677 233f 0f91 8fbf 0ff9 683f 9524 94bf
000000a0: 3a5a a13f e77e d83c 0477 8e3e ffcb b2bf
000000b0: a39f a13e c48e 713f 9f06 813f 49e6 a4bf
000000c0: 5abb b5bf 8b95 cf3e
