Client/keypoint_classifier.tflite (tflite, 6528 bytes, 6 tensors)

sequential_1/dense_5/BiasAdd/ReadVariableOp f4 [3]
000000 b5 a1 8d bb 7d cf 4a 3e b0 b8 89 be
       -0.0043222555 0.19805713 -0.26898718

sequential_1/dense_4/BiasAdd/ReadVariableOp f4 [10]
000000 bb 01 9a 3e 36 c2 83 be 3f f3 64 bc 7f 72 fa 3e
       0.30079445 -0.2573411 -0.01397401 0.4891548
000010 0a be 1c bd 9b 70 55 3e e9 c5 95 3e d3 7e b5 3e
       -0.038267173 0.20843737 0.29252556 0.35448322
000020 a2 e2 d5 3e 39 25 cf 3e
       0.4177447 0.40458086

sequential_1/dense_3/BiasAdd/ReadVariableOp f4 [20]
000000 c0 6c 76 bd 83 0b 52 be 07 5d 89 3e 5d b0 e1 bc
       -0.060162306 -0.20512204 0.26828787 -0.027549917
000010 18 80 b2 3d a1 ac 82 bd d3 c8 36 3e 99 a5 99 be
       0.08715838 -0.063805826 0.17850046 -0.30009153
000020 96 ff b2 3d 20 6c 13 bd 97 de 7f 3e 3e 66 64 bd
       0.087401554 -0.035991788 0.24987255 -0.05576157
000030 8b 49 83 be e8 a7 4a be 46 8e 08 3e ee 63 85 bd
       -0.25642046 -0.19790614 0.13335523 -0.06513201
000040 ee fa 5c be d9 11 8b 3e eb db 8a be d8 40 7b 3d
       -0.21580097 0.27162054 -0.2712091 0.061341137

sequential_1/dense_3/MatMul f4 [20, 42]
000000 d8 8c 69 bd a6 ec 91 be b9 2f 5a 3e 6c d1 05 3e
       -0.057019085 -0.2850086 0.21307267 0.1306817
000010 41 21 dd 3b ee 33 27 3d 59 bd a8 3d d6 8d e7 bd
       0.006748349 0.04082101 0.0823924 -0.1130635
000020 62 1f 28 3e 16 74 cb 3c 16 d1 c7 bc b8 d5 26 3d
       0.16418222 0.024835628 -0.024391692 0.04073116
000030 12 e1 ba bd 71 21 39 3c 56 2c 93 3d b9 61 15 3d
       -0.0912496 0.011299477 0.07186191 0.03647015
000040 be ce ad 3d 0e 8a b9 bc 89 c6 58 3d 4a 08 77 3d
       0.084866986 -0.022648837 0.052923713 0.06031064
000050 03 53 21 3e 43 d4 89 bd 35 5c bf bd bf cd 7b be
       0.15754323 -0.06729939 -0.09343759 -0.24590205
000060 20 49 49 be a2 b9 b7 3f f6 e0 b3 be 79 01 82 bc
       -0.19656801 1.4353526 -0.3513257 -0.015869843
000070 d0 90 34 3e 76 0a 71 be 87 4c 05 3e 48 57 fb be
       0.17633367 -0.23539147 0.13017474 -0.49090028
000080 4e 80 98 3c 0a bd 34 be b7 b9 2b be 21 79 54 bd
       0.018615868 -0.17650238 -0.16770063 -0.05187333
000090 d8 49 97 3d 54 f6 e7 bd 00 73 67 3b f4 90 cf 3d
       0.073871315 -0.1132628 0.0035316348 0.101350695
0000a0 83 c2 84 be 44 92 27 3e e0 28 69 3c 5c 0f 94 be
       -0.2592965 0.1636439 0.014230937 -0.28917968
0000b0 83 e4 85 3e 2c f1 f1 3e 85 89 a7 3e 9a aa 31 3e
       0.26150903 0.47254312 0.32722107 0.17350236
0000c0 49 db 85 3e 3c 6a c0 3d 5f d0 a0 3e ae 5b 1e 3e
       0.26143864 0.093952626 0.31408975 0.1546466
0000d0 94 5b 83 3e 44 f3 89 3d 2d 17 7b 3c 3e b9 05 3c
       0.25655806 0.06735852 0.01532535 0.008161841
0000e0 00 10 e0 bd 8e fc e7 3d 1a a8 20 3c d9 7a 7e 3d
       -0.10940552 0.11327468 0.009805704 0.062128875
0000f0 58 d4 1d be a6 b3 e2 3d bb ec 3f 3e 8e d0 49 be
       -0.15413034 0.110694215 0.1874265 -0.19708464
000100 39 b2 05 3e df 55 04 bf f4 72 8e bb 3d 5c 40 bf
       0.13056268 -0.5169353 -0.0043471996 -0.75140744
000110 11 62 2f bf e8 4b c0 3d a7 c6 3b 3e df c4 86 be
       -0.6850901 0.09389478 0.18337499 -0.26322076
000120 e3 49 0b 3e b9 16 c4 be 5c c5 0d be 30 2f 05 bf
       0.13602404 -0.38298586 -0.13844818 -0.5202513
000130 65 1a 33 be 72 3e 04 3e 73 d4 9d 3e 77 34 bd bc
       -0.17490537 0.12914446 0.30826148 -0.023096306
000140 32 05 d7 3d a5 13 52 be b9 7b de 3d 85 fe c1 be
       0.10499038 -0.20515306 0.10863442 -0.37889495
000150 c8 b8 46 3e e0 7b c2 bd a3 97 30 be aa b0 a5 be
       0.19406426 -0.094962835 -0.17245345 -0.32361346
000160 60 89 09 be de 8f 95 be c6 80 87 be a7 f0 84 be
       -0.1343131 -0.29211324 -0.26465434 -0.25964853
000170 55 70 2d be 0d 3b 58 be 19 53 96 bd 15 7f 25 be
       -0.16937383 -0.21116276 -0.07340068 -0.16161759
000180 a6 48 53 bd ed f0 96 be c9 cd de bd dd f1 00 be
       -0.051582955 -0.29480687 -0.10879094 -0.12592264
000190 7c fa b4 3c 6a bf ef 3c c0 05 8e 3e f4 62 18 be
       0.022092097 0.029266078 0.27738762 -0.14881498
0001a0 e8 63 cb bc c5 02 a5 3d a4 d9 bf 3d 24 21 18 3d
       -0.024827912 0.08057169 0.093676835 0.03714098
0001b0 64 1c 4f 3e a2 c2 25 3e 2e 76 94 3e 80 8e f9 bc
       0.20225674 0.16187528 0.28996414 -0.030463457
0001c0 f5 bd b2 be e4 cf c5 3d 02 87 e3 bd 77 5c b4 3e
       -0.3491055 0.096587926 -0.11109735 0.35226795
0001d0 cf 14 a4 3e 03 2c c7 3e ae dd 11 3e 2a 43 13 bd
       0.32047126 0.38900766 0.1424472 -0.035952725
0001e0 2f c9 da bd 01 e7 df 3d ac a7 82 be 0a 58 e8 3e
       -0.10682904 0.109327324 -0.25518548 0.45379668
0001f0 f2 03 e7 3c f4 87 db 3e 7a 74 3e 3e f7 aa 4b be
       0.028200123 0.42877162 0.1859912 -0.19889437
000200 46 49 b5 be 00 72 22 be 27 30 9d be 77 10 e3 bd
       -0.35407466 -0.158638 -0.307008 -0.11087125
000210 fb 53 1b bf f8 2a dd 3d de de 50 bf 48 cd 3a bd
       -0.6067502 0.10799211 -0.8159007 -0.045605928
000220 7f 81 00 3e 3d 44 0e 3e f0 95 66 3e c3 54 00 3d
       0.12549399 0.13893218 0.22518134 0.031330835
000230 c3 37 04 be 27 04 44 bd c8 64 f3 bd 94 ba ea 3c
       -0.12911896 -0.047855522 -0.11884457 0.02865342
000240 d2 5a 5b 3e 07 8a 2c 3e 08 e6 cc bd 6c 8c 39 3e
       0.21421364 0.16849528 -0.100048125 0.18119973
000250 70 e0 15 be 1d 30 21 3e e3 1b 55 3e b5 49 33 3e
       -0.14636397 0.1574101 0.20811419 0.17508586
000260 89 a5 f0 3e e4 20 b2 3d bf 95 28 be e4 89 d1 b9
       0.47001293 0.0869768 -0.16463374 -0.00039966323
000270 95 90 3a 3e fd 81 2a 3e c1 79 be 3e 99 d0 9b be
       0.18219216 0.16651149 0.37202266 -0.30432585
000280 4b e4 80 3e 3a e8 40 3c d3 3a c4 3c 9a 68 1a bd
       0.25174174 0.011774117 0.02395383 -0.037697412
000290 77 bd 1d 3f 0a ed 9f be 53 50 31 3f f2 e5 06 bf
       0.61617225 -0.31235534 0.6926319 -0.5269462
0002a0 69 43 37 be 9a ea fd bd 52 b3 97 bc f3 99 92 be
       -0.17896809 -0.12398262 -0.018518124 -0.2863308
0002b0 18 f3 e9 3d 3f 9f 94 be 9c 6e 4f b8 61 78 26 3e
       0.114233196 -0.29027745 -4.945566e-05 0.16256858
0002c0 6a 95 6c 3d 10 d2 a4 3d 87 8f 95 3d b0 67 d3 3d
       0.05775968 0.08047879 0.07302766 0.10322511
0002d0 e0 9d 7c 3b fd f2 bf bb 6f c5 1e be ad d2 14 be
       0.003854625 -0.005857824 -0.15505002 -0.14533491
0002e0 f4 af fd bb 07 55 03 be 5f 09 a1 3d c5 37 54 3d
       -0.0077419225 -0.12825404 0.078631155 0.051811
0002f0 ef 74 f3 3d c0 e1 55 be 8b 94 3c bd c2 a5 61 bc
       0.11887538 -0.20886898 -0.0460401 -0.01377243
000300 b6 3a 1f be b0 8d 84 be 4e a0 ff 3d 1f 75 ed 3d
       -0.1554974 -0.2588935 0.124817476 0.11594605
000310 43 66 aa 3e 39 3f ad bd cc b6 d6 3d b5 aa a4 3e
       0.33281144 -0.084593244 0.104840845 0.3216149
000320 1d f8 48 bc 33 d7 8e 3e b5 9f b5 3e 26 b1 e5 bd
       -0.012266186 0.2789856 0.3547341 -0.11215429
000330 16 f0 e7 3d 7f 04 97 bc 48 7c 51 bd 52 3a 88 3e
       0.1132509 -0.018434761 -0.051143914 0.26606995
000340 4f f5 47 be e1 2a dc 3e 18 d1 74 3e f0 33 43 bd
       -0.19527172 0.43001464 0.23907888 -0.047656953
000350 f4 1f c5 3e b7 7d 93 be 7a 1a 28 3e a4 0b e5 bd
       0.3850094 -0.2880685 0.1641635 -0.11183861
000360 e1 ed a0 3d 30 8f bc 3a 61 d1 2d 3e aa 5d 45 3e
       0.07857872 0.0014385935 0.16974403 0.19274011
000370 9d 0f 70 3e 01 f3 24 3e 47 82 3f be e1 7b c2 3d
       0.23443456 0.16108324 -0.1870204 0.09496284
000380 1a 3d d6 3d c8 1b 05 3d 55 b8 26 be 47 45 be 3c
       0.10460873 0.032497197 -0.16281255 0.023226393
000390 ad a5 a8 be 72 ef 4a bd 38 3c 06 3e 55 8d d0 be
       -0.329389 -0.04954476 0.13108909 -0.40732828
0003a0 d2 a1 7e bd 57 53 13 bf dd c9 08 3e e9 f5 2f bf
       -0.062166043 -0.5754904 0.13358255 -0.68734604
0003b0 d1 2f 68 be be ef d3 3d 57 3a 40 3e dc c5 c1 3d
       -0.2267449 0.103484616 0.18772255 0.09461567
0003c0 3b cf a7 bd e1 2a da 3d b9 0c 6d 3e c7 0e e8 3d
       -0.08193823 0.1065271 0.23149385 0.113309436
0003d0 27 b6 98 3c 61 45 00 bd 17 f7 88 3d ae 3a 44 3d
       0.018641545 -0.031316165 0.06687754 0.047907524
0003e0 a1 ef 7f 3e e3 6f 75 3e e3 9a 9b be 90 e2 0b 3e
       0.24993755 0.23968463 -0.30391607 0.13660645
0003f0 1c 9d 52 be fa 78 83 3e 51 37 d3 be bc 52 0f bf
       -0.20567745 0.25678235 -0.4125314 -0.5598562

sequential_1/dense_4/MatMul f4 [10, 20]
000000 4f f3 23 bf 10 17 b9 be 0e 8a cf 3e a7 5c d4 3d
       -0.64043134 -0.36150408 0.40535015 0.103692345
000010 46 18 36 bd f0 10 c6 bc 1b f3 11 3f b9 89 53 3c
       -0.044456743 -0.024177998 0.57011575 0.012911254
000020 01 08 da bd 79 a9 b9 3e 29 41 44 be 35 96 6a bd
       -0.10646058 0.3626211 -0.19165482 -0.057272155
000030 6a 88 a7 3e bb 4f 05 bf 96 0d f9 3d c6 15 2c bf
       0.32721263 -0.52074784 0.121607944 -0.67220724
000040 d1 16 fc be 3b c9 a8 3e 82 5f 39 be c0 a5 9d be
       -0.49236158 0.32966027 -0.1810284 -0.3079052
000050 a0 34 e8 3e c8 13 d7 3e cf 9d bd be ea 8f 0e 3f
       0.4535265 0.4200728 -0.3703446 0.55688345
000060 fc c7 66 be 77 b0 e1 3d c4 f2 aa be 75 9f 75 3f
       -0.22537225 0.11019986 -0.3338834 0.9594644
000070 de c1 5a be 24 33 96 3d dc f6 2c be 4b c3 01 3f
       -0.21363017 0.07333973 -0.16891044 0.5068862
000080 bb 8c 56 3f 41 a0 42 3f 34 92 13 3e 51 c7 b0 bc
       0.8380849 0.7602578 0.14411241 -0.021579416
000090 33 a3 a9 3e 49 dc d1 be 02 72 2c 3f 45 e5 6a 3c
       0.33132324 -0.40988377 0.6736146 0.014336889
0000a0 2f 8e 49 3e 4f bb 17 bf 12 41 70 3e da 46 1e be
       0.19683145 -0.59270185 0.23462322 -0.15456715
0000b0 7b 65 85 be d0 61 ff 3e 49 0f 41 bd 1d ea 0e 3f
       -0.26053986 0.49879313 -0.047133718 0.5582598
0000c0 27 e3 29 3f 62 18 08 3f e5 a4 fc 3d 40 2a d2 bd
       0.6636223 0.53162205 0.12336139 -0.10261965
0000d0 10 74 c7 be 1c e9 bc 3e 58 23 27 3d 4c 98 b6 3e
       -0.38955736 0.36896598 0.04080519 0.35663068
0000e0 13 11 00 3f 66 07 82 bc 9c 01 a0 3e 9f 4e 96 3e
       0.50026053 -0.015872668 0.31251228 0.29356858
0000f0 ed f2 ae 3e 83 24 20 3d cb 77 2b 3f 4f 37 c9 3c
       0.34169713 0.03909732 0.66979665 0.024562506
000100 10 86 00 3f a5 b9 8d 3e 49 94 06 3f 6f e6 08 bf
       0.50204563 0.27680698 0.52570015 -0.53476614
000110 99 20 a6 3e 3a 45 14 bf f1 b0 26 3f fe 4d a8 bc
       0.32446745 -0.5791813 0.6511374 -0.020545002
000120 26 a3 ee be 08 f7 13 bf b1 28 9a 3e ad f3 8a bd
       -0.46608847 -0.57798815 0.3010917 -0.06784759
000130 ca a7 17 bf 82 27 42 3f 91 00 8a 3c 3e 22 ae 3e
       -0.592404 0.75841534 0.016845973 0.340105
000140 8d 94 55 bd c0 3d cc 3d 57 20 95 be c6 0b 5f 3f
       -0.052143622 0.099727154 -0.29126236 0.8712734
000150 f2 42 a4 bd 92 42 af 3e 57 20 99 be b3 2a 78 3f
       -0.08020581 0.34230477 -0.29907486 0.96940154
000160 fc 5c de be 4e cd af 3e 52 5b a0 3e 6f 2f 36 3f
       -0.43430316 0.34336323 0.31319672 0.7116613
000170 63 b8 1b 3f f8 b9 34 3f 1c 5e 50 bd 5f 26 9c ba
       0.60828227 0.70596266 -0.050871 -0.0011913291
000180 59 d6 83 3f 26 11 8d be 4d 71 d7 3d 9d 8a ca bc
       1.0299789 -0.27552146 0.10519657 -0.0247243
000190 b5 02 68 3f bf 10 35 3f e9 c3 42 3c 4c 79 7c bd
       0.9062913 0.7072868 0.011887529 -0.061639115
0001a0 57 02 69 bd ba 2c 73 3f d5 67 ac be ef bf a8 3e
       -0.056886997 0.9499012 -0.33672968 0.32958934
0001b0 72 7d fa 3e 75 96 c2 bb 63 2f 90 3d cf 4d b4 bd
       0.48923832 -0.005938346 0.07040288 -0.08803903
0001c0 db a1 ea 3e dd f7 94 3d e6 6a 9a be 2a 6b 81 3f
       0.4582661 0.07273839 -0.30159682 1.0110829
0001d0 2e a5 c6 3e 69 7c c9 bd cb 72 63 3f 08 a0 79 3f
       0.38797897 -0.098381825 0.88847035 0.97509813
0001e0 53 6e 98 be c8 57 e6 3d 19 9a 9b 3e 21 ad 3b 3f
       -0.2977167 0.11247212 0.30391005 0.7331105
0001f0 1a 2b 19 be 92 95 02 bd 8a f2 d0 3e 8f 4d 70 be
       -0.14957848 -0.031880923 0.40810043 -0.23467086
000200 0a f7 13 bf 22 0c be 3d c5 cb 7d 3e e0 31 8a 3e
       -0.57798827 0.09279658 0.24784763 0.26991177
000210 ac 42 47 bd ba 9e 96 3e 83 ba eb 3e 5e e4 6c 3d
       -0.048647568 0.29417974 0.46040735 0.057834975
000220 6d 48 2d 3f e9 18 23 bd 22 75 2a bf 0a 3f 70 be
       0.6768864 -0.039818678 -0.6658498 -0.23461547
000230 3b b4 16 bf c6 64 ee be 50 ec 23 3e 98 7f 0e bd
       -0.5886876 -0.4656126 0.16008115 -0.03478965
000240 92 73 0d 3e fd ce c4 be e4 88 e7 3d 42 1c 02 bf
       0.13813618 -0.3843917 0.11305407 -0.5082437
000250 ce 06 34 be 42 2c 8c 3e 7c 5a c8 3e 40 b5 c0 3e
       -0.17580721 0.27377516 0.39131534 0.37638283
000260 f5 b9 4b 3e f5 4e ce be d3 ce 2b 3f a4 10 08 bf
       0.19895156 -0.40294614 0.67112464 -0.5315039
000270 9a 3e ef be 4a 0e eb 3e ad 2c fc be 1f 4a b1 be
       -0.4672745 0.4590934 -0.49252835 -0.34626862
000280 2f b3 51 be 67 ea 90 be 8e 84 e4 3e 04 1f b8 bc
       -0.2047851 -0.28303835 0.4463238 -0.022475727
000290 d2 df 0b 3e 62 1a 8b be 8b 88 c3 bd c0 84 54 bd
       0.136596 -0.27168566 -0.09547528 -0.051884413
0002a0 f9 c3 b3 bd 08 fe 8a be 9b a8 58 bd d5 bb 65 bc
       -0.08777613 -0.27146935 -0.05289517 -0.014021833
0002b0 8c 6f a2 bd c0 57 f9 bc 7e 36 a8 3e 6a 99 b7 be
       -0.07931432 -0.03043735 0.32854074 -0.35859233
0002c0 1f 27 e4 bb 0b 75 ee be ea b2 72 be 52 a7 d9 be
       -0.0069626714 -0.46573672 -0.23701063 -0.42510468
0002d0 a1 18 6d 3e 7c 51 aa 3e d0 5f 08 3f 6e 82 b3 be
       0.23153926 0.33265293 0.532712 -0.35060447
0002e0 24 a5 be 3e 37 64 fd 3e 08 bf cb 3c ba fc 43 bf
       0.37235367 0.4949052 0.024871364 -0.76557505
0002f0 91 ff 24 3f d2 46 3e bf 00 35 8d 3b 55 e9 23 be
       0.64452463 -0.74326813 0.0043092966 -0.16006978
000300 cf 3d 8a be 40 b8 2f bf d8 f0 68 bd db 46 b2 3d
       -0.2700028 -0.6864052 -0.05687031 0.08704921
000310 34 3b 37 bf a7 dd 6e 3e 02 98 29 3e 20 a0 f8 3e
       -0.7157471 0.23326741 0.16561893 0.48559666

sequential_1/dense_5/MatMul f4 [3, 10]
000000 c3 d6 75 3f 38 bc c5 be 18 f5 9d 3d f6 39 a3 3e
       0.96030825 -0.38620162 0.077127635 0.31880158
000010 1e 04 80 3e 30 6f a7 bf f4 ba ff bd 24 ec 32 3f
       0.2500314 -1.3080807 -0.1248683 0.6989157
000020 9e c2 58 3f 51 32 ec be 85 55 3f bf 67 ee 73 bf
       0.8467196 -0.46132138 -0.7473987 -0.9528565
000030 31 86 b7 3e 4a ad 24 3f e1 2c 26 bf e0 0a c5 3e
       0.35844567 0.6432692 -0.6491223 0.3848486
000040 5c 6c 7b bf 08 42 1f bf 05 45 29 bd b5 8c ed 3e
       -0.9821222 -0.6221013 -0.041325588 0.46396413
000050 c2 cb 57 3d 13 8b 15 3f 43 ff 31 3f 20 9e 6d bf
       0.052684553 0.58415335 0.69530123 -0.92819405
000060 7f 42 7a 3f 68 40 83 3e 05 4d c7 be 35 fc 39 bf
       0.97757715 0.25635076 -0.3892595 -0.7265046
000070 48 ef 0f bf 48 e2 2e bf
       -0.5622449 -0.6831403
